Regression/NN_weights.pth (torch, 2216 bytes, 3 tensors)

fc1.weight f4 [5, 5]
14.428011 14.987912 12.629156 14.102646 18.372831 -0.5103071 -0.81827897 -0.3379097
-0.20631264 -0.92863923 10.032113 10.259624 8.5033245 7.4479156 13.662882 11.260681
12.149555 9.591095 4.5584674 13.45134 -0.20604768 -0.052446008 -0.18163952 0.29666853
-0.35301706
00000000: 22d9 6641 7dce 6f41 0611 4a41 70a4 6141
00000010: 8ffb 9241 7ca3 02bf bb7a 51bf 8002 adbe
00000020: 9f43 53be 4dbb 6dbf 8983 2041 6b27 2441
00000030: 9e0d 0841 5355 ee40 2a9b 5a41 c02b 3441
00000040: 9464 4241 2075 1941 f7de 9140 b038 5741
00000050: 2afe 52be a0d1 56bd b6ff 39be f0e4 973e
00000060: a7be b4be

fc1.bias f4 [5]
-11.940209 -0.7268327 -23.00522 -25.965773 -0.44170353
00000000: 190b 3fc1 b511 3abf b10a b8c1 e7b9 cfc1
00000010: f726 e2be

fc2.weight f4 [1, 5]
15.534512 0.22065692 16.648064 18.087141 -0.14521226
00000000: 5c8d 7841 e3f3 613e 3c2f 8541 77b2 9041
00000010: 86b2 14be
